model/model.pth (torch, 13727 bytes, 4 tensors)

linear1.weight f4 [128, 20]
0.22673368 -1.1229757 -0.06169781 -0.1069915 2.0014696 0.20019318 0.7968446 -2.0212262
0.1651153 0.50547385 -0.32591838 -0.12855445 0.24471548 0.5641331 -0.37236965 -0.13761182
-0.74205595 -0.6411429 -0.88740176 0.62699276 0.09755318 -0.7149707 0.4159324 -0.6974383
-0.768731 -0.19937724 1.3562135 -0.5399046 -0.64618754 0.4621881 0.051544275 -0.18794358
0.5984565 -0.94149256 0.44884267 -0.8685019 0.34648275 0.08320344 0.5152348 0.3317071
-0.18291947 -0.1458388 -0.042865746 -0.28238094 -0.6991799 0.08417833 -0.79226214 -0.7370605
-0.23120238 0.05873728 -0.07240892 -0.07266173 0.2947581 0.20736413 -0.15964592 0.22081588
0.09443322 -0.037337933 0.15005642 0.15128233 -0.12989452 0.52746654 -0.2719753 0.19942263
0.39285675 -0.56400687 -0.17571507 -0.22581877 0.14458843 -0.3273107 -0.6309864 0.1423898
0.25960222 0.2472885 0.29152802 -0.5346351 0.13121296 0.1912704 -0.40640754 0.18803835
0.70306414 0.21539442 -0.044815656 0.23227149 -0.96568656 0.2619325 0.681312 1.2718976
-0.0012873439 0.35324094 0.1859267 -0.050765067 -0.24549803 0.29022837 0.15978701 -0.8503343
0.29228556 0.25268942 0.09107797 -0.12964465 -0.34765586 0.32141978 0.35309643 0.47321934
-0.92182785 0.10721671 0.7868322 -0.59494436 0.37354386 0.21967955 0.056168985 -0.045993816
-0.06578299 0.1398299 0.22316015 -0.109972864 0.08039917 0.33934894 -0.29702547 -0.079856716
-0.38060358 -0.19416653 0.14681599 -0.32097787 0.0547403 0.7580919 -0.113742486 -0.7229576
0.04218565 0.08521484 -0.071298964 0.05141423 0.4681935 -0.6262163 0.20990518 -0.3838296
-1.1560285 0.52923346 -0.8206164 0.6429208 0.6343851 -1.9274322 -0.38431668 0.29641864
1.2584268 -1.3053197 -0.41717437 -0.38739052 -0.25044245 0.2511898 -0.087145515 0.35574427
0.17315125 -0.5392368 -2.142681 0.6201035 0.33403775 -0.41382217 0.14313015 0.21982154
-0.08344028 0.07302209 -1.3680183 0.12244939 -0.58396983 -1.2832619 0.49661574 0.40868062
0.3659824 0.39985734 -0.1503405 -0.2236683 0.013022682 0.15294167 0.2681884 -0.2460361
-0.7161028 0.2598283 -0.053987168 0.2329096 -0.49103773 0.13922836 -0.8595744 0.46592575
-1.9676667 0.93108505 -0.7220851 -0.38117048 -0.15112126 -0.18209824 0.36371046 0.10609834
-0.4211392 -0.37114304 0.051682793 -0.109717995 -1.0167981 0.6912664 -0.09366677 0.52853334
0.044094756 0.046719182 0.43455622 -0.09379981 0.4400131 -1.1133013 0.68054664 -0.42204055
-0.33820903 -0.078607 0.5842518 0.030867685 -0.35751557 -0.8646528 -0.2200376 0.18474507
-0.60696656 -0.7098757 0.6170911 -0.9704734 0.60478127 0.5303861 -1.5425794 -0.9382751
1.5197138 1.5089049 -1.056058 -0.51215047 0.16471858 0.43834534 -0.16624065 -0.61468
0.523184 0.4760372 -2.2278993 -1.6626735 -0.12439541 -0.32027563 0.5655587 0.114018135
-0.53371245 0.104720354 -0.33419704 0.14317274 0.43634987 -0.3099271 -1.4779176 1.1125547
0.16739635 -0.9333453 -0.30199316 0.017484102 -0.85750777 -0.34350786 -0.36647362 0.99608755
00000000: e02c 683e abbd 8fbf d8b6 7cbd 5c1e dbbd
00000010: 1418 0040 71ff 4c3e 02fe 4b3f c55b 01c0
00000020: fc13 293e bc66 013f c6de a6be c7a3 03be
00000030: b296 7a3e 076b 103f 3ca7 bebe 1dea 0cbe
00000040: 61f7 3dbf f121 24bf c32c 63bf 9982 203f
00000050: f6c9 c73d 5208 37bf 17f5 d43e 518b 32bf
00000060: 8ecb 44bf 8c29 4cbe 6798 ad3f 3037 0abf
00000070: 8c6c 25bf eba3 ec3e 1720 533d 4874 40be
00000080: 7234 193f a805 71bf b5ce e53e 2456 5ebf
00000090: 3066 b13e 9166 aa3d 6ee6 033f 83d5 a93e
000000a0: 3e4f 3bbe c456 15be fe93 2fbd 3c94 90be
000000b0: 74fd 32bf b065 ac3d b1d1 4abf ffaf 3cbf
000000c0: 51c0 6cbe 8196 703d 214b 94bd accf 94bd
000000d0: 89ea 963e 4357 543e 387a 23be 8f1d 623e
000000e0: 3466 c13d a9ef 18bd 64a8 193e c1e9 1a3e
000000f0: 1203 05be 0c08 073f 5940 8bbe 7235 4c3e
00000100: 8524 c93e c162 10bf a7ee 33be 093d 67be
00000110: fd0e 143e 4595 a7be 5388 21bf a2ce 113e
00000120: 95ea 843e 3239 7d3e 2943 953e d9dd 08bf
00000130: b15c 063e 63dc 433e a614 d0be 208d 403e
00000140: 03fc 333f 5b90 5c3e 9f90 37bd 94d8 6d3e
00000150: 3c37 77bf 041c 863e 776a 2e3f 8acd a23f
00000160: 18bc a8ba ffdb b43e 9263 3e3e 08ef 4fbd
00000170: d663 7bbe d098 943e 359f 233e 82af 59bf
00000180: 74a6 953e 8260 813e 1687 ba3d 91c1 04be
00000190: f3ff b1be 2291 a43e 0ec9 b43e ce49 f23e
000001a0: e9fc 6bbf 6f94 db3d d66d 493f 464e 18bf
000001b0: 2441 bf3e adf3 603e 7311 663d 0364 3cbd
000001c0: 3bb9 86bd 922f 0f3e 1884 643e 7439 e1bd
000001d0: 52a8 a43d 25bf ad3e b913 98be eb8b a3bd
000001e0: 79de c2be 97d3 46be ee56 163e 3657 a4be
000001f0: 5d37 603d 5012 423f d2f1 e8bd c013 39bf
00000200: dcca 2c3d 1e85 ae3d 3105 92bd ba97 523d
00000210: 0fb7 ef3e b64f 20bf 62f1 563e 5085 c4be
00000220: bef8 93bf d87b 073f eb13 52bf 7596 243f
00000230: 1067 223f 19b6 f6bf 28c5 c4be 2fc4 973e
00000240: 2114 a13f b714 a7bf e197 d5be 0d58 c6be
00000250: fe39 80be f39b 803e 5979 b2bd 1d24 b63e
00000260: 904e 313e 6c0b 0abf af21 09c0 1abf 1e3f
00000270: ff06 ab3e 80e0 d3be b690 123e e618 613e
00000280: bde2 aabd 9b8c 953d 391b afbf bfc6 fa3d
00000290: 0c7f 15bf ed41 a4bf 6b44 fe3e 963e d13e
000002a0: 0c62 bb3e 1aba cc3e dcf2 19be 4e09 65be
000002b0: 165d 553c be9c 1c3e fd4f 893e e3f0 7bbe
000002c0: 8352 37bf 3708 853e a621 5dbd db7f 6e3e
000002d0: 4c69 fbbe e191 0e3e 110d 5cbf d28d ee3e
000002e0: 81dc fbbf 975b 6e3f 92da 38bf c728 c3be
000002f0: 88bf 1abe f677 3abe 4238 ba3e 164a d93d
00000300: 8f9f d7be 7606 bebe 56b1 533d d4b3 e0bd
00000310: 7126 82bf d6f6 303f 5dd4 bfbd f64d 073f
00000320: b49c 343d 9d5c 3f3d 277e de3e 1d1a c0bd
00000330: 6649 e13e a880 8ebf 4e38 2e3f b315 d8be
00000340: bc29 adbe b5fc a0bd 8791 153f 3ade fc3c
00000350: 480c b7be e359 5dbf 8951 61be d02d 3d3e
00000360: 2962 1bbf 6aba 35bf aff9 1d3f f270 78bf
00000370: f2d2 1a3f 62c7 073f 3e73 c5bf cc32 70bf
00000380: fb85 c23f cc23 c13f e92c 87bf 4b1c 03bf
00000390: fdab 283e cd6e e03e fd3a 2abe ab5b 1dbf
000003a0: 63ef 053f 26bb f33e e795 0ec0 7cd2 d4bf
000003b0: 05c3 febd 2bfb a3be 74c8 103f 5782 e93d
000003c0: 61a1 08bf a077 d63d e01b abbe e09b 123e
000003d0: 4069 df3e c4ae 9ebe 672c bdbf 3168 8e3f
000003e0: f369 2b3e b8ef 6ebf d99e 9abe d23a 8f3c
000003f0: a185 5bbf 43e0 afbe 6ea2 bbbe 98ff 7e3f

linear1.bias f4 [128]
0.08443883 0.033141743 0.30767402 0.3409698 -0.27978545 -0.07031123 0.21063091 -0.10596322
0.04049992 0.06356415 -0.05328793 0.38820228 -0.14988479 0.15837495 -0.024661979 -0.030937463
0.057189286 -0.0038282275 0.16325721 -0.13955395 -0.14965503 -0.020268122 -0.28968027 0.17649938
0.09309366 -0.16263819 -0.033460148 0.0395721 0.16105281 -0.14861059 0.20628077 0.12826799
-0.06913803 0.45659226 -0.04333119 -0.021704057 0.08235486 0.0780363 0.17736092 -0.1993195
0.09698096 0.43848512 -0.06507163 -0.03436839 -0.19660933 -0.31415376 -0.1413909 -0.11603883
-0.09472354 0.31615788 0.3109393 -0.011383484 0.27588478 -0.16314492 0.39024606 -0.044826612
-0.2773155 -0.028370788 -0.071768574 0.0347827 -0.26232597 0.06577697 0.3642624 -0.34521556
0.40947467 0.26652697 -0.015254877 -0.06498003 0.33689114 0.13114153 -0.0060817967 -0.23456447
-0.21905373 0.22538781 -0.022589909 -0.26910865 0.2467872 -0.054165978 -0.041701566 0.00633137
-0.22944438 -0.15980992 0.42234004 0.07443675 -0.21098386 0.032515895 0.12836036 -0.5122769
0.032917175 0.017934723 0.053420547 0.036184616 -0.35444623 0.013922697 -0.088563226 -0.23356338
0.32656765 -0.17791761 0.05192172 0.13267063 -0.25680026 0.32009065 -0.45389107 0.025685044
0.0041479487 -0.09163925 0.03820623 0.08874668 0.10085657 0.003579831 0.28559434 -0.12825428
0.08200151 -0.016727116 -0.052836757 0.09376197 0.17471205 -0.19924119 0.08157981 -0.5285189
-0.19636363 -0.22656 -0.17152275 0.23770311 0.19048253 -0.11290045 0.20080628 0.081906416
00000000: 44ee ac3d a3bf 073d 7387 9d3e 9893 ae3e
00000010: 0a40 8fbe 56ff 8fbd a1af 573e 3f03 d9bd
00000020: 3ee3 253d ec2d 823d 7244 5abd 73c2 c63e
00000030: 667b 19be 0b2d 223e eb07 cabc 9070 fdbc
00000040: 503f 6a3d 00e3 7abb e62c 273e 3be7 0ebe
00000050: 2b3f 19be 5509 a6bc f950 94be 41bc 343e
00000060: e4a7 be3d a08a 26be 820d 09bd 5b16 223d
00000070: 07eb 243e 602d 18be 443b 533e af58 033e
00000080: 3d98 8dbd 76c6 e93e 0c7c 31bd b5cc b1bc
00000090: aaa9 a83d 7fd1 9f3d 1a9e 353e 691a 4cbe
000000a0: f49d c63d 1f81 e03e 4644 85bd dec5 0cbd
000000b0: f553 49be c3d8 a0be c7c8 10be c4a5 edbd
000000c0: 6afe c1bd 72df a13e 7033 9f3e cb81 3abc
000000d0: c540 8d3e 760f 27be 55ce c73e 1c9c 37bd
000000e0: 4cfc 8dbe db69 e8bc 67fb 92bd 4e78 0e3d
000000f0: 974f 86be 13b6 863d 9a80 ba3e 18c0 b0be
00000100: aaa6 d13e 3976 883e 97ef 79bc 4014 85bd
00000110: ff7c ac3e f749 063e cf49 c7bb ab31 70be
00000120: 9f4f 60be 10cc 663e 790e b9bc 9cc8 89be
00000130: c9b5 7c3e 25dd 5dbd 43cf 2abd 6277 cf3b
00000140: 78f3 6abe 36a5 23be f43c d83e 4b72 983d
00000150: 270c 58be 632f 053d e670 033e 9424 03bf
00000160: 29d4 063d d7eb 923c 81cf 5a3d 5236 143d
00000170: fa79 b5be 061c 643c a360 b5bd 3d2b 6fbe
00000180: e033 a73e 0930 36be dfab 543d cfda 073e
00000190: 537b 83be ece2 a33e 6964 e8be 7169 d23c
000001a0: 84eb 873b 5cad bbbd 237e 1c3d d2c0 b53d
000001b0: e48d ce3d 999b 6a3b 6c39 923e 1755 03be
000001c0: 68f0 a73d 4e07 89bc 5b6b 58bd 4706 c03d
000001d0: b7e7 323e e205 4cbe 5113 a73d 044d 07bf
000001e0: 8c13 49be 58ff 67be a9a3 2fbe 7268 733e
000001f0: da0d 433e 5a38 e7bd 29a0 4d3e 8dbe a73d

linear2.weight f4 [3, 128]
-1.713514 0.123146616 0.685881 0.67217904 -0.33645833 -0.22436072 -0.093716525 0.24092554
0.68807817 -0.8336373 -0.79356 -0.5542229 -1.1130103 0.69036376 0.45986193 -0.13867626
0.9042976 0.7324634 -0.47908798 -0.35063833 0.3486111 -0.84694433 -0.13656038 -1.2829552
0.2626854 -0.74729973 -0.64073235 -0.70309234 0.42519552 -0.18700996 1.3583406 -0.5684431
0.47681588 0.70688695 0.9273164 -0.0102416305 0.9961022 -0.49609122 0.12482782 0.8395651
-0.3575792 0.49999517 -1.6023053 1.4512265 -0.59940517 -1.5563351 -0.92625684 1.3697504
0.08663474 0.18274638 -0.4116092 -1.5203339 0.4113936 -0.048436917 -0.7412953 0.8143312
-0.6817688 -0.08462186 0.9020167 0.6072747 -0.926172 -1.1004282 0.2813982 -0.89625543
1.5381302 0.6894546 -0.23547216 0.12357932 0.48920393 0.7147922 -0.19774796 -1.2017404
-0.49981493 0.21580487 0.77318275 -0.34032467 0.36867857 0.55614966 -0.013512726 0.2442868
-0.5109358 -0.40596455 0.83543766 -0.28532308 0.0713358 -0.046001233 0.3002311 -1.672958
0.63554996 0.67694306 0.014406826 -0.8820994 -2.048091 -0.49831322 -0.45488718 -1.5994525
0.47415435 -0.5089849 -0.30932045 0.3946375 0.09281442 0.7029588 0.34688497 0.6762051
1.0152942 -0.15818712 0.43450725 -0.522892 -0.4294328 1.0039837 0.8704272 0.42299703
-1.2020997 -0.5799414 0.37504417 0.016520359 0.8842815 -0.16786326 0.9057243 -1.1367313
-0.577323 -0.012753184 -0.48719603 0.6114251 0.50074923 -0.23541676 0.04425122 -0.12564711
-0.7922047 -0.6784193 0.2099377 0.7913459 -0.6461822 0.43021402 -1.5866859 0.9247138
-0.24543417 0.5288577 -1.512327 0.91368306 -0.5760599 -0.87137437 -0.8387806 0.79530334
0.33446 -1.3869703 0.65884215 1.5941336 -1.5506337 0.9527473 -1.0687095 0.42566463
-0.8075086 -0.58842486 -0.28328437 0.8788359 -4.0739174 2.2598789 -0.93466395 -0.33862606
-0.17529954 0.49180335 -0.05661418 -0.486901 0.7817263 1.2039002 1.10667 1.3294605
0.33901206 0.3807382 -0.82906944 0.59136426 0.20600471 0.91179234 0.22396296 -0.34132263
0.14977689 0.034872103 0.5988915 0.7592193 0.41694272 -0.018450558 -0.18885022 -1.0492969
-0.17762813 -0.09895912 0.17099398 0.42903206 -0.9270741 0.45834547 -0.59692657 -0.53054565
0.8583919 0.9455219 0.5388534 0.911458 0.47644943 0.22349735 -0.21596186 -0.7526213
-0.18613252 1.6693863 -0.1461152 -0.18523265 0.29098257 0.929055 -0.034735806 -0.107287504
-0.31084317 -0.517356 0.97661704 -0.2019323 -0.06265885 0.7389879 0.27574906 -2.328779
-0.91815525 -0.44244477 -1.0751706 -0.03267417 -0.60580677 -0.8677696 -0.027358908 0.06211672
0.71719265 -0.49208435 -0.42242774 -0.9664665 -1.2870945 -0.24463286 0.33456996 -0.67284685
-0.18091111 -0.20010807 -0.38188675 -1.6412232 0.32111067 -1.2414763 0.7120278 -0.49870372
0.07791764 -1.2433345 0.035657767 0.74754244 0.035141006 2.525325 -0.08816819 -1.1073178
0.5382788 -0.038747523 -0.66329354 0.49188668 0.6030109 -0.11088885 -0.5200345 0.6934402
00000000: 6d54 dbbf 4b34 fc3d e695 2f3f ed13 2c3f
00000010: 4444 acbe d1be 65be 73ee bfbd 2fb5 763e
00000020: e425 303f 4169 55bf c026 4bbf 8de1 0dbf
00000030: 1f77 8ebf aebb 303f 0673 eb3e 2601 0ebe
00000040: 0c80 673f b982 3b3f 054b f5be de86 b3be
00000050: 277d b23e 58d1 58bf 7cd6 0bbe e037 a4bf
00000060: b37e 863e 094f 3fbf 0907 24bf dcfd 33bf
00000070: 3ab3 d93e 8a7f 3fbe 1bde ad3f 7d85 11bf
00000080: 3621 f43e 8bf6 343f 9c64 6d3f 83cc 27bc
00000090: 8e00 7f3f abff fdbe baa5 ff3d bded 563f
000000a0: 9f14 b7be 5eff ff3e 5718 cdbf cac1 b93f
000000b0: 9e72 19bf fd35 c7bf 2b1f 6dbf fb53 af3f
000000c0: 8e6d b13d de21 3b3e 71be d2be 4d9a c2bf
000000d0: 2fa2 d23e ca65 46bd 87c5 3dbf 0278 503f
000000e0: 6688 2ebf 3a4e adbd 91ea 663f 5b76 1b3f
000000f0: 9c19 6dbf d5da 8cbf 6d13 903e ff70 65bf
00000100: 73e1 c43f 1980 303f 9d1f 71be 2817 fd3d
00000110: f078 fa3e 9ffc 363f 717e 4abe a1d2 99bf
00000120: bee7 ffbe f4fb 5c3e 4eef 453f 093f aebe
00000130: 70c3 bc3e d35f 0e3f 7b64 5dbc 5226 7a3e
00000140: b0cc 02bf 96da cfbe 3edf 553f de15 92be
00000150: 8118 923d ca6b 3cbd e4b7 993e 7d23 d6bf
00000160: 67b3 223f 244c 2d3f 9c0a 6c3c 44d1 61bf
00000170: ec13 03c0 e922 ffbe f9e6 e8be dcba ccbf
00000180: 5cc4 f23e d64c 02bf 405f 9ebe ed0d ca3e
00000190: 7d15 be3d 1cf5 333f e89a b13e c71b 2d3f
000001a0: 29f5 813f cefb 21be bc77 de3e 40dc 05bf
000001b0: 9ede dbbe 8a82 803f 51d4 5e3f 1193 d83e
000001c0: 67de 99bf 0a77 14bf ca05 c03e b455 873c
000001d0: 4660 623f 59e4 2bbe 8cdd 673f 6980 91bf
000001e0: 71cb 13bf bbf2 50bc c271 f9be 5b86 1c3f
000001f0: 1a31 003f 1711 71be c440 353d a3a9 00be
00000200: edcd 4abf e3ac 2dbf e9f9 563e a595 4a3f
00000210: 326c 25bf 0345 dc3e 8618 cbbf 0bba 6c3f
00000220: 1853 7bbe 3863 073f ee93 c1bf 22e7 693f
00000230: a978 13bf 6412 5fbf 53ba 56bf 0099 4b3f
00000240: 573e ab3e 3e88 b1bf e1a9 283f 920c cc3f
00000250: 2a7b c6bf 3fe7 733f 79cb 88bf b7f0 d93e
00000260: e2b8 4ebf 03a3 16bf a60a 91be 64fb 603f
00000270: 885d 82c0 dba1 1040 2346 6fbf 6560 adbe
00000280: b981 33be a6cd fb3e 45e4 67bd 164b f9be
00000290: 371f 483f 6719 9a3f 5da7 8d3f c32b aa3f
000002a0: fd92 ad3e 1ef0 c23e e53d 54bf a663 173f
000002b0: e6f2 523e 396b 693f 8c56 653e d7c1 aebe
000002c0: 1d5f 193e 0dd6 0e3d f450 193f 325c 423f
000002d0: 8479 d53e a025 97bc f461 41be 5c4f 86bf
000002e0: 26e4 35be 14ab cabd 0c19 2f3e 17aa db3e
000002f0: ba54 6dbf 42ac ea3e 2ed0 18bf d7d1 07bf
00000300: 92bf 5b3f b90d 723f 4cf2 093f 5055 693f
00000310: 2ef1 f33e 7ddc 643e 1b25 5dbe caab 40bf
00000320: 8699 3ebe 73ae d53f 399f 15be a1ad 3dbe
00000330: abfb 943e 8cd6 6d3f 2247 0ebd 8db9 dbbd
00000340: d626 9fbe 7171 04bf 9303 7a3f 57c7 4ebe
00000350: 4853 80bd 502e 3d3f fb2e 8d3e b70a 15c0
00000360: 390c 6bbf 1f88 e2be 319f 89bf 5ad5 05bd
00000370: 2716 1bbf 2626 5ebf ca1f e0bc 1a6e 7e3d
00000380: f099 373f 7bf2 fbbe 7348 d8be 596a 77bf
00000390: 83bf a4bf 0981 7abe c14c ab3e b13f 2cbf
000003a0: c340 39be 21e9 4cbe a986 c3be 9a13 d2bf
000003b0: 9e68 a43e b2e8 9ebf 7447 363f 1856 ffbe
000003c0: 4993 9f3d 9625 9fbf e10d 123d f15e 3f3f
000003d0: 04f0 0f3d ed9e 2140 8691 b4bd 97bc 8dbf
000003e0: a4cc 093f b9b5 1ebd 9bcd 29bf 92d8 fb3e
000003f0: ec5e 1a3f b219 e3bd fb20 05bf 4c85 313f

linear2.bias f4 [3]
-0.020911925 -0.0644693 -0.07002278
00000000: 7c4f abbc 7b08 84bd 1a68 8fbd
